1D-KS-SWAG/post/networks/torchSwagModel_epoch200.pth (torch_old, 319766 bytes, 147 tensors)

model_log_beta_cov_mat_sqrt f4 [10, 1]
00000000: b31d 2441 f41c 2441 891c 2441 e91b 2441
00000010: 841b 2441 dd1a 2441 391a 2441 f119 2441
00000020: 6f19 2441 1619 2441
10.257251 10.257069 10.256967 10.256814 10.256718 10.256558 10.256402 10.256333
10.256209 10.2561245

model_features_In_conv_weight_mean f4 [32, 2, 7]
00000000: 4991 153e 246b 093f 0653 873e bafd 62bc
00000010: 218b 23be 617c 35be 92ed 42be a59e 54be
00000020: 6da0 333f b06d 1c3d d727 c3bd 8da3 533d
00000030: 7601 393e 1ef3 bdbd 384f 843c c7e5 2b3e
00000040: 9899 803e 4660 eabc 7752 42be 15c9 fd3d
00000050: 40c3 ec3d 0372 01bb bcd0 c5be 7a09 693e
00000060: d721 d93d 37c8 3f3e 50e1 19be 1839 a2be
00000070: cdb0 32bd 3dd4 5a3e 0afe 2bbd c2e5 473e
00000080: f77b 03be 2117 22be 34e7 abbd bc96 2bbd
00000090: 10c6 853e 742c a9be 1226 4abe 35c2 b13e
000000a0: 2638 903d ec2c b53c 02e5 c93d 2090 5dbe
000000b0: 423f d43d 331f aebd 1915 5f3c 0471 fa3e
000000c0: cc21 0b3d c0f0 8abd aeb3 043e b77f 7fbe
000000d0: 801c 80bd a00d 423d cf5e 823d 1148 febd
000000e0: 1fc4 bdbd 0199 053d 6f20 873d c6c7 44be
000000f0: 4020 953e 6757 453e 8c89 783e ab95 133e
00000100: 79fd c7bd a5d4 febd e49c 2ebe 0622 54bd
00000110: 89a5 f63e 38e5 d5bc 699b 753d c583 a53e
00000120: 3fbd 3dbd 470d eebc 0efb 03bc 5b00 da3e
00000130: 0e70 c13d 292c acbd dacc d1bd ea26 16be
00000140: 1966 1dbc d869 233e 111d a4be d5f4 99be
00000150: d186 dbbc 82e6 a8be 15fe 8dbc cab2 efbd
00000160: d307 61be 0c5b 58bd ed6b d5bd 8577 0d3e
00000170: 68bf 623e 06b5 2bbe 847b eebd 650a 273e
00000180: 54dd 5f3e b93b 8b3d dbb1 123e 2040 173e
00000190: 4837 45bf 3649 a6be 5798 543e 3bf2 34bc
000001a0: 3946 4e3e cd74 20be 18cd 0e3e b553 0abe
000001b0: 7e90 c8be 13a4 b23d 17db a63d d164 43be
000001c0: 3c01 0ebe cfa4 f03e 5832 e53d f2a8 48be
000001d0: baf3 05be 1190 1fbe 5186 56be e724 febd
000001e0: 2a54 0d3e cc48 ce3e c798 263e bf36 353e
000001f0: e914 aebd 148b 4d3e f9b4 6fbe c6fe 37be
00000200: d52c 64be 27f0 3a3d 8def cfbe db70 bcbd
00000210: 1bd8 ee3d ac20 783e ee03 593e d9c2 3f3e
00000220: c566 16be cae4 aabe 0633 a6bd 1087 e93d
00000230: 8fa7 e03c bcad ac3e 5c5f 213e 7bc1 dabc
00000240: 8a4b 7dbe 7676 ec3e ecae 543e 4793 d0bd
00000250: 4723 90be 38db 3dbe 2a69 893c 1c64 afbe
00000260: ed8f 5a3e 5b26 68be 3676 6d3e 95b0 2c3d
00000270: d9d6 a43d da8c 9c3c 5bab 37be e0fe 0bbe
00000280: be76 9b3c 2018 51be b228 22be 13e5 bf3e
00000290: d246 8f3e cd84 1d3e 2f4b 27be 6912 1cbe
000002a0: e008 2abe 5efc d5bc 64e9 233e 2cf0 c7be
000002b0: 2a74 b6be c16e 9a3d 2904 dabd 4c35 48be
000002c0: 3af9 603e b053 923e b3a9 97be 0789 0fbd
000002d0: 58cc a93e af0f 353e fe06 a6bd 4bad 283d
000002e0: f663 a2bd f98f 7dbe b59a 42be 9c91 943e
000002f0: 79cb cfbd cb55 42be bf5a 753d 8266 05be
00000300: 7d44 b9be 12b5 ee3d c734 7c3e 3638 783d
00000310: a9c8 c73d bc03 0e3e 03c7 1b3e ddf9 18be
00000320: f8df 99bd 760e 33bd 3c93 e4bd f49f 24be
00000330: 97dc 0b3d a84c 18be 38a4 c0be 4577 f5be
00000340: 7f8d 393d 0f8e 613e 1b07 07be 414d 6cbe
00000350: b245 07be 7d88 5fbe 9152 0ebe 5822 77be
00000360: f42e 8e3d 4057 1d3d 267f 803e a55b 9cbe
00000370: bb7c e9be f1ec d2bc e084 403e a924 263e
00000380: 2124 23be 7dbd 413e 8598 dfbd 9f7e 46be
00000390: f26c b2be 726c 28be 6e3b e83d 6219 a83c
000003a0: d280 683e 7938 00be 5d97 a4be e547 fdbe
000003b0: e6ec 8f3d 601d 1f3d 206d 2b3d 727f c33d
000003c0: 09aa 1fbe ce06 7d3e 8f3d 89be 0147 57bf
000003d0: 205b 463b 8ddd 02be d8aa a4bd a513 273e
000003e0: 7000 e03b f036 0cbe 8e48 16bf 530f aa3d
000003f0: 3727 3abd 020b d13d 498a 9f3d 11cc 0e3e
0.14606203 0.5367911 0.2643053 -0.013854438 -0.15971042 -0.17723228 -0.19035938 -0.20763643
0.70166665 0.038190544 -0.09529083 0.051669646 0.18066964 -0.092748865 0.016151056 0.16786872
0.25117183 -0.02861036 -0.1897677 0.12391869 0.115606785 -0.0019751794 -0.38635814 0.22757521
0.106021576 0.1872872 -0.15027356 -0.31684184 -0.04362564 0.21370025 -0.041990317 0.1952124
-0.12840258 -0.15829135 -0.08393708 -0.0418918 0.26127672 -0.33041728 -0.19741085 0.3471848
0.070419595 0.022116147 0.09858133 -0.2163701 0.10363628 -0.085020445 0.01361587 0.4891435
0.033967778 -0.06784201 0.12959167 -0.24951063 -0.06255436 0.047376275 0.063657396 -0.12416089
-0.09265923 0.03261662 0.06597983 -0.19216833 0.29126167 0.19271623 0.2427122 0.14412563
-0.09765143 -0.124429025 -0.17052037 -0.05179026 0.48173168 -0.026110277 0.059962664 0.32327095
-0.046323057 -0.029059066 -0.008055462 0.42578396 0.09445201 -0.084068604 -0.102441505 -0.14663282
-0.0096068615 0.15958345 -0.32053426 -0.30069605 -0.026797684 -0.32988364 -0.01733307 -0.11704023
-0.21975641 -0.052821204 -0.10420976 0.13815124 0.22143328 -0.16768274 -0.116446525 0.16312559
0.21861774 0.067985006 0.14325659 0.14770555 -0.7703748 -0.3247773 0.20761238 -0.01104408
0.20143975 -0.15669556 0.13945425 -0.13508494 -0.3917274 0.08722701 0.08147257 -0.19081427
-0.13867658 0.4700074 0.11191243 -0.19595698 -0.13081256 -0.155823 -0.20949675 -0.12409382
0.13801637 0.40289915 0.16269217 0.17696665 -0.08500082 0.20072585 -0.2340888 -0.17968282
-0.22282727 0.045639183 -0.4061245 -0.09201213 0.116623126 0.24231213 0.21192905 0.18726672
-0.14687641 -0.33377677 -0.08115201 0.11402714 0.027423648 0.337263 0.15759033 -0.026703587
-0.24735847 0.4618413 0.20769852 -0.10184341 -0.28151914 -0.18540657 0.016773779 -0.34256065
0.21343966 -0.22670881 0.23189625 0.04216059 0.080487914 0.019110132 -0.1793646 -0.13671446
0.01897752 -0.20419359 -0.15835837 0.37479457 0.2798372 0.1538269 -0.16337274 -0.15241398
-0.16604948 -0.026121315 0.16007 -0.39050424 -0.356355 0.07540656 -0.10645325 -0.19551581
0.21970072 0.28579473 -0.29621658 -0.03504279 0.33163714 0.17681764 -0.081068024 0.04118089
-0.07929222 -0.24761952 -0.19004329 0.2901734 -0.10146231 -0.1897804 0.059900995 -0.13027385
-0.36185065 0.1165563 0.24629508 0.060600482 0.0975507 0.13868612 0.15212636 -0.14939065
-0.07513422 -0.043714963 -0.11160895 -0.16076642 0.034145918 -0.14872992 -0.3762529 -0.47942558
0.045300957 0.22026847 -0.13186304 -0.23076345 -0.1321018 -0.2182941 -0.13898684 -0.24134195
0.06942549 0.038413286 0.25097007 -0.3053867 -0.45602974 -0.025747748 0.18800688 0.16224922
-0.15931751 0.1891994 -0.10917763 -0.1938424 -0.34848744 -0.16447619 0.1133946 0.020519916
0.22705391 -0.12521543 -0.3214673 -0.49468914 0.07027607 0.038846374 0.041852117 0.09545793
-0.15592207 0.24709627 -0.26804778 -0.8409272 0.0030266717 -0.12779827 -0.08040398 0.16316088
0.0068359897 -0.13692832 -0.5870446 0.08303704 -0.045447554 0.10207178 0.07790048 0.13945033

model_features_In_conv_weight_sq_mean f4 [32, 2, 7]
00000000: e1c4 ae3c b187 933e 6211 8f3d f544 4939
00000010: dbf4 d03c 16a9 003d e86c 143d 1b97 303d
00000020: 7913 fc3e c12b bf3a b4c5 143c 05f7 2e3b
00000030: 0fb3 053d e2f0 0c3c 91c3 8839 7ad9 e63c
00000040: ea33 813d 2494 563a 0e81 133d 0697 7b3c
00000050: 92f8 5a3c 34e8 8236 e8da 183e 3322 543d
00000060: 5c2a 383c 5dac 0f3d 23fe b83c 9a98 cd3d
00000070: ad74 f93a 250e 3b3d bc1a e73a 0d17 1c3d
00000080: 2810 873c 8742 cd3c 51dd e63b 6405 e63a
00000090: c1ce 8b3d 6c97 df3d 16a0 1f3d 28dc f63d
000000a0: 667e a23b 8a38 003a 6339 1f3c 22c2 3f3d
000000b0: d1f8 2f3c cedc ec3b c165 4239 f100 753e
000000c0: 733b 973a dcd0 963b 8d93 893c abff 7e3d
000000d0: 0939 803b a418 133b e2c8 843b 0a93 7c3c
000000e0: 34ab 0c3c a270 8b3a 74a6 8e3b 8842 173d
000000f0: 12bd ad3d 9d1f 183d c04a 713d 6d2a aa3c
00000100: 0f3c 1c3c a8aa 7d3c 4b33 ee3c 57c8 2f3b
00000110: 89a2 6d3e 3bb7 323a caa2 6b3b 4106 d63d
00000120: fea0 0c3b af5c 5d3a ca15 8838 9da4 393e
00000130: 2a2a 123c b096 e73b 24f0 2b3c 3b23 b03c
00000140: bc8c c138 e89f d03c 7d6a d23d 1a2d b93d
00000150: ec3f 3c3a a4de de3d b483 9d39 4b6f 603c
00000160: b4ce 453d c1d9 363b baec 313c c059 9c3c
00000170: 7cd6 483d a456 e63c d929 5e3c 16fd d93c
00000180: 52c3 433d c573 973b ab1e a83c 65b9 b23c
00000190: 17ee 173f 0506 d83d a88c 303d 07cb ff38
000001a0: 0e35 263d 5524 c93c 5c50 9f3c ad7c 953c
000001b0: 0f22 1d3e 1751 f93b b281 d93b af22 153d
000001c0: ab8a 9d3c 6335 623e 1e33 4d3c 6448 1d3d
000001d0: 452e 8c3c 8ee8 c63c dbc4 333d 434d 7c3c
000001e0: 9d0b 9c3c 3939 263e f8d4 d83c 7446 003d
000001f0: d4c0 ec3b 0708 253d 6573 603d 353e 043d
00000200: e25f 4b3d d581 083b 4ae5 283e f6b5 0a3c
00000210: 7dd6 5e3c 527f 703d aff7 373d 51a4 0f3d
00000220: 31b9 b03c 4c29 e43d 6ccc d73b 1a07 553c
00000230: a425 453a daf3 e83d 3172 cb3c 12ee 3a3a
00000240: 5e9e 7a3d a46a 5a3e 24b2 303d abef 293c
00000250: 644f a23d 64cd 0c3d 6883 9339 0a54 f03d
00000260: 6999 3a3d 8a85 523d 0a44 5c3d 7efb e83a
00000270: f647 d43b e777 bf39 67c6 033d 861d 993c
00000280: 04d2 bc39 62c8 2a3d 0a6f cd3c a0d7 0f3e
00000290: 6060 a03d 42d8 c13c 63a6 da3c dc4c be3c
000002a0: 8adf e13c e4dd 323a 07e6 d13c 4127 1c3e
000002b0: 5709 023e db52 ba3b 14ab 393c 4d93 1c3d
000002c0: 15b5 453d 1e47 a73d 3bb3 b33d bbf4 a03a
000002d0: d23e e13d 2f0f 003d 2d5a d73b c047 de3a
000002e0: 4205 ce3b d425 7b3d d9ee 133d 5571 ac3d
000002f0: b2aa 283c 1e86 133d d426 6b3b 5e07 8b3c
00000300: 0e14 063e 2c95 5e3c e777 783d f1ac 703b
00000310: 8ce9 1b3c 4790 9d3c 3995 bd3c 54d3 b63c
00000320: f9fa b83b 727a fa3a 9216 4c3c 9eba d33c
00000330: 89d2 983a 3536 b53c c1f6 103e 835d 6b3e
00000340: ca7d 063b f9ba 463d fa70 8e3c 851e 5a3d
00000350: 21f5 8e3c 152f 433d 603f 9e3c 4093 6e3d
00000360: 39f0 9d3b 4768 c13a d1fe 803d 9eff be3d
00000370: 3ef4 543e 98c9 2d3a 8ac7 103d 20a7 d73c
00000380: 12ee cf3c 3e9f 123d 0e4b 433c 17e8 193d
00000390: 57b7 f83d f99c dd3c ceab 523c a0c2 dc39
000003a0: b929 533d 0a71 803c 85a4 d33d 2d97 7a3e
000003b0: 06d5 a13b faca c53a e595 e53a 5b4b 153c
000003c0: 5429 c73c 6616 7a3d df25 933d 5108 353f
000003d0: 0fb1 1937 82cb 853c add6 d33b 3a15 da3c
000003e0: bc00 4438 4298 993c 2d72 b03e bbf0 e13b
000003f0: 025d 073b f5b2 2a3c 2fda c63b 064e 9f3c
0.021334114 0.28814462 0.069857374 0.00019194542 0.025507381 0.031411253 0.036236674 0.043112855
0.49233606 0.0014585183 0.009080339 0.0026697528 0.032641467 0.008602353 0.0002608565 0.028179873
0.0630873 0.0008185527 0.036011748 0.015355831 0.013364928 3.901334e-06 0.14927256 0.051790427
0.011240568 0.035076488 0.02258212 0.10038872 0.0019031964 0.045667786 0.0017631869 0.03810792
0.016487196 0.025056137 0.007045426 0.0017549214 0.068265446 0.10917553 0.03897103 0.1205371
0.0049589155 0.00048912375 0.009718272 0.046816 0.010740475 0.0072284704 0.00018539188 0.2392614
0.0011538103 0.0046025347 0.01679399 0.062255543 0.003913049 0.0022445107 0.0040522674 0.015415916
0.00858574 0.0010638426 0.004353339 0.036928684 0.08483328 0.037139524 0.058909178 0.020772183
0.009535803 0.015482582 0.029077193 0.0026822293 0.23206533 0.00068174646 0.0035955184 0.104504116
0.0021458264 0.0008444292 6.489044e-05 0.18129201 0.0089211855 0.007067524 0.010494266 0.021501174
9.229171e-05 0.025466874 0.10274217 0.090418056 0.0007181156 0.10882309 0.000300435 0.013698409
0.04829283 0.0027900788 0.010859663 0.019085765 0.049032673 0.028117485 0.013559782 0.026609939
0.047793694 0.004621955 0.020522436 0.021816919 0.5934767 0.10548023 0.04310289 0.00012197164
0.04057794 0.024553457 0.019447498 0.018247927 0.15345024 0.0076085436 0.0066377753 0.03641003
0.019231161 0.22090678 0.012524394 0.038399115 0.017111907 0.024280813 0.043888908 0.01539928
0.019048506 0.16232766 0.026468739 0.03131719 0.0072251353 0.04029086 0.05479755 0.032285888
0.049651988 0.002082934 0.16493717 0.008466234 0.013600943 0.058715172 0.044913944 0.035068814
0.021572681 0.11140689 0.0065856483 0.013002181 0.00075205625 0.11374636 0.024834724 0.0007130812
0.061186187 0.21329743 0.04313864 0.010372083 0.07925299 0.034375563 0.0002813593 0.11734779
0.04555646 0.051396884 0.053775825 0.0017775146 0.006478305 0.00036519693 0.032171633 0.018690836
0.00036014628 0.041695006 0.025077362 0.14047098 0.07830882 0.02366269 0.026690667 0.023230009
0.027572412 0.00068232254 0.02562238 0.15249349 0.12698875 0.0056861467 0.011332292 0.038226414
0.048268396 0.081678614 0.0877442 0.0012279967 0.1099831 0.03126448 0.006572029 0.0016958639
0.006287248 0.061315373 0.036116455 0.08420054 0.010294603 0.036016576 0.0035881298 0.016971286
0.13093588 0.01358537 0.060661223 0.0036724175 0.009516131 0.019233836 0.023142444 0.022317566
0.0056451526 0.0019109978 0.012456553 0.025845822 0.0011659424 0.022120574 0.14156629 0.2298489
0.0020521753 0.048518155 0.017387856 0.053251762 0.017450871 0.047652323 0.019317329 0.058245897
0.0048198965 0.0014755809 0.06298602 0.09326099 0.20796296 0.0006629466 0.035346545 0.026324809
0.025382075 0.035796396 0.01191975 0.037574854 0.12144344 0.02705239 0.012858344 0.00042106677
0.05155346 0.015678901 0.10334114 0.24471731 0.0049387245 0.0015090399 0.0017515986 0.009112204
0.024311699 0.061056517 0.07184958 0.70715815 9.160735e-06 0.016332392 0.0064648003 0.02662145
4.6730725e-05 0.01874936 0.3446211 0.0068951524 0.0020654802 0.010418643 0.00606849 0.019446384

model_features_In_conv_weight_cov_mat_sqrt f4 [10, 448]
00000000: 4791 153e 216b 093f 0753 873e b8fd 62bc
00000010: 198b 23be 597c 35be 8ced 42be 9f9e 54be
00000020: 6ba0 333f af6d 1c3d d327 c3bd 8ca3 533d
00000030: 6f01 393e 1df3 bdbd 344f 843c c0e5 2b3e
00000040: 9899 803e 4160 eabc 7052 42be 0dc9 fd3d
00000050: 3ec3 ec3d 1479 01bb b7d0 c5be 7009 693e
00000060: d221 d93d 32c8 3f3e 4be1 19be 1539 a2be
00000070: cab0 32bd 38d4 5a3e 08fe 2bbd c5e5 473e
00000080: ee7b 03be 1b17 22be 2fe7 abbd b696 2bbd
00000090: 0ac6 853e 6f2c a9be 0b26 4abe 2bc2 b13e
000000a0: 2138 903d ea2c b53c 00e5 c93d 1890 5dbe
000000b0: 3e3f d43d 2d1f aebd 1515 5f3c 0371 fa3e
000000c0: c721 0b3d bbf0 8abd a9b3 043e af7f 7fbe
000000d0: 811c 80bd 9b0d 423d d05e 823d 0648 febd
000000e0: 20c4 bdbd fb98 053d 6d20 873d c6c7 44be
000000f0: 3b20 953e 6157 453e 8489 783e a795 133e
00000100: 78fd c7bd a2d4 febd e09c 2ebe fe21 54bd
00000110: 85a5 f63e 34e5 d5bc 5f9b 753d c483 a53e
00000120: 3ebd 3dbd 410d eebc 12fb 03bc 5700 da3e
00000130: 0c70 c13d 232c acbd d9cc d1bd e626 16be
00000140: 1266 1dbc d769 233e 0d1d a4be d2f4 99be
00000150: ce86 dbbc 7ae6 a8be 10fe 8dbc c5b2 efbd
00000160: ca07 61be 055b 58bd e46b d5bd 8277 0d3e
00000170: 64bf 623e 00b5 2bbe 807b eebd 5e0a 273e
00000180: 4fdd 5f3e b13b 8b3d d5b1 123e 1b40 173e
00000190: 4137 45bf 2f49 a6be 5398 543e 30f2 34bc
000001a0: 3146 4e3e c274 20be 17cd 0e3e af53 0abe
000001b0: 7890 c8be 0ba4 b23d 12db a63d c664 43be
000001c0: 3201 0ebe c8a4 f03e 5632 e53d eba8 48be
000001d0: b4f3 05be 1190 1fbe 5186 56be e424 febd
000001e0: 2554 0d3e c748 ce3e c498 263e bb36 353e
000001f0: e514 aebd 138b 4d3e f3b4 6fbe c0fe 37be
00000200: d22c 64be 21f0 3a3d 8bef cfbe da70 bcbd
00000210: 15d8 ee3d a920 783e ed03 593e d5c2 3f3e
00000220: c366 16be c7e4 aabe 0333 a6bd 0a87 e93d
00000230: 8ba7 e03c bcad ac3e 5e5f 213e 75c1 dabc
00000240: 844b 7dbe 7376 ec3e e5ae 543e 4393 d0bd
00000250: 4323 90be 33db 3dbe 2369 893c 1864 afbe
00000260: e88f 5a3e 5a26 68be 2c76 6d3e 91b0 2c3d
00000270: d7d6 a43d d58c 9c3c 54ab 37be ddfe 0bbe
00000280: bb76 9b3c 1b18 51be ad28 22be 10e5 bf3e
00000290: cf46 8f3e c684 1d3e 304b 27be 6512 1cbe
000002a0: db08 2abe 57fc d5bc 5de9 233e 29f0 c7be
000002b0: 2474 b6be bd6e 9a3d 2504 dabd 4735 48be
000002c0: 34f9 603e ad53 923e ada9 97be 0589 0fbd
000002d0: 54cc a93e ad0f 353e fe06 a6bd 44ad 283d
000002e0: ee63 a2bd f18f 7dbe b19a 42be 9691 943e
000002f0: 76cb cfbd c455 42be bf5a 753d 8466 05be
00000300: 7c44 b9be 0db5 ee3d bf34 7c3e 3038 783d
00000310: a2c8 c73d b903 0e3e 03c7 1b3e dbf9 18be
00000320: f6df 99bd 740e 33bd 3593 e4bd ef9f 24be
00000330: 91dc 0b3d a24c 18be 38a4 c0be 4477 f5be
00000340: 7c8d 393d 068e 613e 1807 07be 3d4d 6cbe
00000350: ad45 07be 7988 5fbe 8c52 0ebe 5122 77be
00000360: ee2e 8e3d 3f57 1d3d 287f 803e a15b 9cbe
00000370: b27c e9be f0ec d2bc d984 403e a524 263e
00000380: 1e24 23be 76bd 413e 8098 dfbd 9b7e 46be
00000390: ef6c b2be 6b6c 28be 6f3b e83d 5b19 a83c
000003a0: ce80 683e 7738 00be 5697 a4be e047 fdbe
000003b0: e4ec 8f3d 591d 1f3d 1a6d 2b3d 697f c33d
000003c0: 06aa 1fbe c306 7d3e 8c3d 89be f946 57bf
000003d0: f029 463b 89dd 02be d6aa a4bd 9f13 273e
000003e0: 9bfe df3b ec36 0cbe 8848 16bf 520f aa3d
000003f0: 3127 3abd fe0a d13d 4a8a 9f3d 0dcc 0e3e
0.146062 0.5367909 0.26430532 -0.013854437 -0.1597103 -0.17723216 -0.1903593 -0.20763634
0.70166653 0.03819054 -0.0952908 0.051669642 0.18066953 -0.09274886 0.016151048 0.16786861
0.25117183 -0.02861035 -0.1897676 0.12391863 0.11560677 -0.0019756006 -0.386358 0.22757506
0.10602154 0.18728712 -0.15027349 -0.31684175 -0.04362563 0.21370018 -0.04199031 0.19521244
-0.12840244 -0.15829127 -0.08393704 -0.041891776 0.26127654 -0.33041713 -0.19741075 0.3471845
0.07041956 0.022116143 0.098581314 -0.21636999 0.10363625 -0.0850204 0.013615866 0.48914346
0.03396776 -0.06784197 0.1295916 -0.24951051 -0.06255437 0.047376256 0.0636574 -0.12416081
-0.092659235 0.032616597 0.065979816 -0.19216833 0.29126152 0.19271614 0.24271208 0.14412557
-0.09765142 -0.124429 -0.1705203 -0.05179023 0.48173156 -0.02611027 0.059962627 0.32327092
-0.046323054 -0.029059054 -0.008055465 0.42578384 0.09445199 -0.08406856 -0.1024415 -0.14663276
-0.009606855 0.15958343 -0.32053414 -0.30069596 -0.026797678 -0.3298834 -0.01733306 -0.117040195
-0.21975628 -0.052821178 -0.10420969 0.1381512 0.22143322 -0.16768265 -0.116446495 0.16312549
0.21861766 0.067984946 0.1432565 0.14770548 -0.77037436 -0.3247771 0.20761232 -0.01104407
0.20143963 -0.1566954 0.13945423 -0.13508485 -0.3917272 0.08722695 0.08147253 -0.19081411
-0.13867643 0.47000718 0.111912414 -0.19595687 -0.13081247 -0.155823 -0.20949675 -0.1240938
0.1380163 0.402899 0.16269213 0.1769666 -0.08500079 0.20072584 -0.2340887 -0.17968273
-0.22282723 0.04563916 -0.40612444 -0.09201212 0.11662308 0.24231209 0.21192904 0.18726666
-0.14687638 -0.33377668 -0.081151985 0.1140271 0.02742364 0.337263 0.15759036 -0.026703576
-0.24735838 0.4618412 0.20769842 -0.10184338 -0.28151903 -0.18540649 0.016773766 -0.34256053
0.21343958 -0.2267088 0.2318961 0.042160574 0.0804879 0.019110123 -0.1793645 -0.13671441
0.018977514 -0.20419352 -0.15835829 0.37479448 0.2798371 0.1538268 -0.16337276 -0.15241392
-0.1660494 -0.026121302 0.1600699 -0.39050415 -0.35635483 0.07540653 -0.10645322 -0.19551574
0.21970063 0.28579465 -0.2962164 -0.03504278 0.33163702 0.17681761 -0.081068024 0.041180864
-0.07929216 -0.2476194 -0.19004323 0.29017323 -0.10146229 -0.1897803 0.059900995 -0.13027388
-0.36185062 0.116556264 0.24629496 0.06060046 0.097550645 0.13868608 0.15212636 -0.14939062
-0.0751342 -0.043714955 -0.1116089 -0.16076635 0.034145895 -0.14872983 -0.3762529 -0.47942555
0.045300946 0.22026834 -0.131863 -0.23076339 -0.13210173 -0.21829404 -0.13898677 -0.24134184
0.06942545 0.038413282 0.25097013 -0.30538657 -0.45602947 -0.025747746 0.18800677 0.16224916
-0.15931746 0.1891993 -0.10917759 -0.19384234 -0.34848735 -0.16447608 0.11339461 0.020519903
0.22705385 -0.1252154 -0.3214671 -0.494689 0.07027605 0.038846347 0.041852094 0.09545786
-0.15592203 0.2470961 -0.2680477 -0.8409267 0.00302374 -0.12779821 -0.08040397 0.16316079
0.0068357713 -0.13692826 -0.58704424 0.08303703 -0.045447532 0.10207175 0.077900484 0.13945027

model_features_DecBlock1_denselayer1_norm1_weight_mean f4 [32]
00000000: ffcb a63e 588a c63e 06c0 be3e a17f 823e
00000010: ad53 983e 4190 133f b619 ae3e f8d1 153f
00000020: 5fa9 3e3f b576 bd3d 7685 1f3f 355e 7f3e
00000030: f957 dc3e 8782 993e a4ee 933e 91bc 3e3e
00000040: abde f03e d2b7 183e b0e6 293f 43fa 533e
00000050: 3841 323f e5c7 c73e 0a87 123f 11a2 723f
00000060: b217 5d3e d44e 113e ec67 9d3e b61c 913e
00000070: fd01 6a3f cfbb 8c3e adca 003f e7ce 993e
0.32577512 0.38777423 0.37255877 0.25487998 0.2975134 0.5764199 0.3400399 0.5852351
0.7447719 0.09251157 0.6231302 0.24938281 0.43035868 0.29982397 0.28893006 0.1862662
0.47044882 0.14913872 0.66367626 0.20700936 0.69630766 0.39019695 0.57237303 0.94778544
0.2159107 0.14190227 0.3074335 0.28342217 0.91409284 0.27487037 0.5030926 0.30040666

model_features_DecBlock1_denselayer1_norm1_weight_sq_mean f4 [32]
00000000: 605a d93d 49fa 193e 9421 0e3e bf0b 853d
00000010: f646 b53d f91d aa3e f2cd ec3d 225c af3e
00000020: dcff 0d3f 8138 0c3c fecd c63e d3bc 7e3d
00000030: 54a7 3d3e 8b1a b83d dbf7 aa3d 6a1c 0e3d
00000040: 36a2 623e 9d35 b63c c384 e13e 7086 2f3d
00000050: 763d f83e 5de8 1b3e 95bc a73e caf6 653f
00000060: e5f1 3e3d c6f4 a43c 4391 c13d 1983 a43d
00000070: a1e7 553f e6bb 9a3d 9b96 813e d8d1 b83d
0.10612941 0.15036882 0.13879997 0.06496381 0.08851425 0.33225992 0.115627185 0.3424998
0.55468535 0.008558393 0.38829035 0.062191796 0.18520862 0.08989438 0.08348056 0.034695067
0.22132191 0.022242362 0.44046602 0.04285282 0.4848439 0.15225358 0.32761064 0.89829695
0.046617407 0.020136248 0.094515346 0.080328174 0.8355656 0.0755537 0.25310215 0.090243995

model_features_DecBlock1_denselayer1_norm1_weight_cov_mat_sqrt f4 [10, 32]
00000000: fbcb a63e 558a c63e 01c0 be3e 9f7f 823e
00000010: ae53 983e 3f90 133f b419 ae3e f3d1 153f
00000020: 5ea9 3e3f b176 bd3d 6a85 1f3f 335e 7f3e
00000030: f957 dc3e 8482 993e a2ee 933e 89bc 3e3e
00000040: a0de f03e cfb7 183e abe6 293f 39fa 533e
00000050: 3141 323f dfc7 c73e 0587 123f 0da2 723f
00000060: a917 5d3e d04e 113e e967 9d3e b61c 913e
00000070: fa01 6a3f cbbb 8c3e abca 003f ddce 993e
00000080: fbcb a63e 558a c63e 01c0 be3e 9f7f 823e
00000090: ae53 983e 3f90 133f b419 ae3e f3d1 153f
000000a0: 5ea9 3e3f b176 bd3d 6a85 1f3f 335e 7f3e
000000b0: f957 dc3e 8482 993e a2ee 933e 89bc 3e3e
000000c0: a0de f03e cfb7 183e abe6 293f 39fa 533e
000000d0: 3141 323f dfc7 c73e 0587 123f 0da2 723f
000000e0: a917 5d3e d04e 113e e967 9d3e b61c 913e
000000f0: fa01 6a3f cbbb 8c3e abca 003f ddce 993e
00000100: fbcb a63e 558a c63e 01c0 be3e 9f7f 823e
00000110: ae53 983e 3f90 133f b419 ae3e f3d1 153f
00000120: 5ea9 3e3f b176 bd3d 6a85 1f3f 335e 7f3e
00000130: f957 dc3e 8482 993e a2ee 933e 89bc 3e3e
00000140: a0de f03e cfb7 183e abe6 293f 39fa 533e
00000150: 3141 323f dfc7 c73e 0587 123f 0da2 723f
00000160: a917 5d3e d04e 113e e967 9d3e b61c 913e
00000170: fa01 6a3f cbbb 8c3e abca 003f ddce 993e
00000180: fbcb a63e 558a c63e 01c0 be3e 9f7f 823e
00000190: ae53 983e 3f90 133f b419 ae3e f3d1 153f
000001a0: 5ea9 3e3f b176 bd3d 6a85 1f3f 335e 7f3e
000001b0: f957 dc3e 8482 993e a2ee 933e 89bc 3e3e
000001c0: a0de f03e cfb7 183e abe6 293f 39fa 533e
000001d0: 3141 323f dfc7 c73e 0587 123f 0da2 723f
000001e0: a917 5d3e d04e 113e e967 9d3e b61c 913e
000001f0: fa01 6a3f cbbb 8c3e abca 003f ddce 993e
00000200: fbcb a63e 558a c63e 01c0 be3e 9f7f 823e
00000210: ae53 983e 3f90 133f b419 ae3e f3d1 153f
00000220: 5ea9 3e3f b176 bd3d 6a85 1f3f 335e 7f3e
00000230: f957 dc3e 8482 993e a2ee 933e 89bc 3e3e
00000240: a0de f03e cfb7 183e abe6 293f 39fa 533e
00000250: 3141 323f dfc7 c73e 0587 123f 0da2 723f
00000260: a917 5d3e d04e 113e e967 9d3e b61c 913e
00000270: fa01 6a3f cbbb 8c3e abca 003f ddce 993e
00000280: fbcb a63e 558a c63e 01c0 be3e 9f7f 823e
00000290: ae53 983e 3f90 133f b419 ae3e f3d1 153f
000002a0: 5ea9 3e3f b176 bd3d 6a85 1f3f 335e 7f3e
000002b0: f957 dc3e 8482 993e a2ee 933e 89bc 3e3e
000002c0: a0de f03e cfb7 183e abe6 293f 39fa 533e
000002d0: 3141 323f dfc7 c73e 0587 123f 0da2 723f
000002e0: a917 5d3e d04e 113e e967 9d3e b61c 913e
000002f0: fa01 6a3f cbbb 8c3e abca 003f ddce 993e
00000300: fbcb a63e 558a c63e 01c0 be3e 9f7f 823e
00000310: ae53 983e 3f90 133f b419 ae3e f3d1 153f
00000320: 5ea9 3e3f b176 bd3d 6a85 1f3f 335e 7f3e
00000330: f957 dc3e 8482 993e a2ee 933e 89bc 3e3e
00000340: a0de f03e cfb7 183e abe6 293f 39fa 533e
00000350: 3141 323f dfc7 c73e 0587 123f 0da2 723f
00000360: a917 5d3e d04e 113e e967 9d3e b61c 913e
00000370: fa01 6a3f cbbb 8c3e abca 003f ddce 993e
00000380: fbcb a63e 558a c63e 01c0 be3e 9f7f 823e
00000390: ae53 983e 3f90 133f b419 ae3e f3d1 153f
000003a0: 5ea9 3e3f b176 bd3d 6a85 1f3f 335e 7f3e
000003b0: f957 dc3e 8482 993e a2ee 933e 89bc 3e3e
000003c0: a0de f03e cfb7 183e abe6 293f 39fa 533e
000003d0: 3141 323f dfc7 c73e 0587 123f 0da2 723f
000003e0: a917 5d3e d04e 113e e967 9d3e b61c 913e
000003f0: fa01 6a3f cbbb 8c3e abca 003f ddce 993e
0.325775 0.38777414 0.37255862 0.25487992 0.29751343 0.5764198 0.34003985 0.5852348
0.74477184 0.09251154 0.6231295 0.24938278 0.43035868 0.29982388 0.28893 0.18626608
0.4704485 0.14913867 0.66367596 0.20700921 0.69630724 0.39019677 0.57237273 0.9477852
0.21591057 0.14190221 0.3074334 0.28342217 0.91409266 0.27487025 0.50309247 0.30040637
0.325775 0.38777414 0.37255862 0.25487992 0.29751343 0.5764198 0.34003985 0.5852348
0.74477184 0.09251154 0.6231295 0.24938278 0.43035868 0.29982388 0.28893 0.18626608
0.4704485 0.14913867 0.66367596 0.20700921 0.69630724 0.39019677 0.57237273 0.9477852
0.21591057 0.14190221 0.3074334 0.28342217 0.91409266 0.27487025 0.50309247 0.30040637
0.325775 0.38777414 0.37255862 0.25487992 0.29751343 0.5764198 0.34003985 0.5852348
0.74477184 0.09251154 0.6231295 0.24938278 0.43035868 0.29982388 0.28893 0.18626608
0.4704485 0.14913867 0.66367596 0.20700921 0.69630724 0.39019677 0.57237273 0.9477852
0.21591057 0.14190221 0.3074334 0.28342217 0.91409266 0.27487025 0.50309247 0.30040637
0.325775 0.38777414 0.37255862 0.25487992 0.29751343 0.5764198 0.34003985 0.5852348
0.74477184 0.09251154 0.6231295 0.24938278 0.43035868 0.29982388 0.28893 0.18626608
0.4704485 0.14913867 0.66367596 0.20700921 0.69630724 0.39019677 0.57237273 0.9477852
0.21591057 0.14190221 0.3074334 0.28342217 0.91409266 0.27487025 0.50309247 0.30040637
0.325775 0.38777414 0.37255862 0.25487992 0.29751343 0.5764198 0.34003985 0.5852348
0.74477184 0.09251154 0.6231295 0.24938278 0.43035868 0.29982388 0.28893 0.18626608
0.4704485 0.14913867 0.66367596 0.20700921 0.69630724 0.39019677 0.57237273 0.9477852
0.21591057 0.14190221 0.3074334 0.28342217 0.91409266 0.27487025 0.50309247 0.30040637
0.325775 0.38777414 0.37255862 0.25487992 0.29751343 0.5764198 0.34003985 0.5852348
0.74477184 0.09251154 0.6231295 0.24938278 0.43035868 0.29982388 0.28893 0.18626608
0.4704485 0.14913867 0.66367596 0.20700921 0.69630724 0.39019677 0.57237273 0.9477852
0.21591057 0.14190221 0.3074334 0.28342217 0.91409266 0.27487025 0.50309247 0.30040637
0.325775 0.38777414 0.37255862 0.25487992 0.29751343 0.5764198 0.34003985 0.5852348
0.74477184 0.09251154 0.6231295 0.24938278 0.43035868 0.29982388 0.28893 0.18626608
0.4704485 0.14913867 0.66367596 0.20700921 0.69630724 0.39019677 0.57237273 0.9477852
0.21591057 0.14190221 0.3074334 0.28342217 0.91409266 0.27487025 0.50309247 0.30040637
0.325775 0.38777414 0.37255862 0.25487992 0.29751343 0.5764198 0.34003985 0.5852348
0.74477184 0.09251154 0.6231295 0.24938278 0.43035868 0.29982388 0.28893 0.18626608
0.4704485 0.14913867 0.66367596 0.20700921 0.69630724 0.39019677 0.57237273 0.9477852
0.21591057 0.14190221 0.3074334 0.28342217 0.91409266 0.27487025 0.50309247 0.30040637

model_features_DecBlock1_denselayer1_norm1_bias_mean f4 [32]
00000000: 7e4a bbbe 32c7 c9be e6d8 89bb bb1d 523e
00000010: 9187 f3bd 128e 7f3e cd9a 0c3d 9875 99be
00000020: b686 bf3d 85ec 52be 6130 5fbe 8476 ea3d
00000030: cf01 c8bd 8298 89be a5cb 7c3d 54a7 ccbd
00000040: 47d9 83be 9f37 a93d 6c61 433e aff5 fdbc
00000050: c00f a4be f188 2fbe fa21 f7bd aca8 bfbd
00000060: e7c0 bebd 620b 1c3e ae7b 873d de89 1fbe
00000070: 3cd5 b0be 022b e1bc 4309 833e 15da cb3e
-0.3658027 -0.39409786 -0.0042067645 0.20519154 -0.118910916 0.2495654 0.034327317 -0.2997253
0.09351866 -0.20598038 -0.21795799 0.11448386 -0.0976597 -0.26874167 0.061717648 -0.09992853
-0.25751707 0.08262562 0.19080132 -0.03100094 -0.32043266 -0.17142083 -0.120670274 -0.093583435
-0.09314137 0.15238717 0.06615387 -0.15579936 -0.34537685 -0.027486328 0.25593004 0.3981482

model_features_DecBlock1_denselayer1_norm1_bias_sq_mean f4 [32]
00000000: e705 093e 660a 1f3e bb73 9437 be74 2c3d
00000010: 9baa 673c 5e1c 7f3d 6673 9a3a 86fb b73d
00000020: 4a4a 0f3c e1c8 2d3d 5295 423d d9bc 563c
00000030: cd42 1c3c 2ee9 933d 93a1 793b 1e9b 233c
00000040: 31d0 873d f5b4 df3b 871d 153d 8aef 7b3a
00000050: 6248 d23d ebb8 f03c 8f92 6e3c 1b7d 0f3c
00000060: e022 0e3c be3b be3c 5367 8f3b 12d9 c63c
00000070: c04b f43d 940c 463a f224 863d 9953 223e
0.13381158 0.1553131 1.7696866e-05 0.04210352 0.014139797 0.062282912 0.0011783659 0.08983521
0.008745739 0.0424279 0.047505684 0.013106548 0.009537411 0.0722221 0.003809069 0.009985713
0.06631506 0.0068269917 0.036405113 0.0009610584 0.10267712 0.02938505 0.0145613095 0.008757855
0.008675307 0.023221847 0.004376331 0.024273429 0.11928511 0.0007554975 0.065500155 0.15852202

model_features_DecBlock1_denselayer1_norm1_bias_cov_mat_sqrt f4 [10, 32]
00000000: 7a4a bbbe 2fc7 c9be 31d5 89bb b51d 523e
00000010: 8a87 f3bd 108e 7f3e cf9a 0c3d 9475 99be
00000020: b486 bf3d 82ec 52be 5f30 5fbe 7f76 ea3d
00000030: c701 c8bd 8198 89be a1cb 7c3d 52a7 ccbd
00000040: 46d9 83be 9b37 a93d 6461 433e acf5 fdbc
00000050: c10f a4be e888 2fbe f521 f7bd a5a8 bfbd
00000060: e1c0 bebd 5e0b 1c3e a77b 873d d989 1fbe
00000070: 36d5 b0be f92a e1bc 3f09 833e 12da cb3e
00000080: 7a4a bbbe 2fc7 c9be 0dd5 89bb b51d 523e
00000090: 8a87 f3bd 108e 7f3e cf9a 0c3d 9475 99be
000000a0: b486 bf3d 82ec 52be 5f30 5fbe 7f76 ea3d
000000b0: c701 c8bd 8198 89be a1cb 7c3d 52a7 ccbd
000000c0: 46d9 83be 9b37 a93d 6461 433e acf5 fdbc
000000d0: c10f a4be e888 2fbe f521 f7bd a5a8 bfbd
000000e0: e1c0 bebd 5e0b 1c3e a77b 873d d989 1fbe
000000f0: 36d5 b0be f92a e1bc 3f09 833e 12da cb3e
00000100: 7a4a bbbe 2fc7 c9be fbd4 89bb b51d 523e
00000110: 8a87 f3bd 108e 7f3e cf9a 0c3d 9475 99be
00000120: b486 bf3d 82ec 52be 5f30 5fbe 7f76 ea3d
00000130: c701 c8bd 8198 89be a1cb 7c3d 52a7 ccbd
00000140: 46d9 83be 9b37 a93d 6461 433e acf5 fdbc
00000150: c10f a4be e888 2fbe f521 f7bd a5a8 bfbd
00000160: e1c0 bebd 5e0b 1c3e a77b 873d d989 1fbe
00000170: 36d5 b0be f92a e1bc 3f09 833e 12da cb3e
00000180: 7a4a bbbe 2fc7 c9be dad4 89bb b51d 523e
00000190: 8a87 f3bd 108e 7f3e cf9a 0c3d 9475 99be
000001a0: b486 bf3d 82ec 52be 5f30 5fbe 7f76 ea3d
000001b0: c701 c8bd 8198 89be a1cb 7c3d 52a7 ccbd
000001c0: 46d9 83be 9b37 a93d 6461 433e acf5 fdbc
000001d0: c10f a4be e888 2fbe f521 f7bd a5a8 bfbd
000001e0: e1c0 bebd 5e0b 1c3e a77b 873d d989 1fbe
000001f0: 36d5 b0be f92a e1bc 3f09 833e 12da cb3e
00000200: 7a4a bbbe 2fc7 c9be c6d4 89bb b51d 523e
00000210: 8a87 f3bd 108e 7f3e cf9a 0c3d 9475 99be
00000220: b486 bf3d 82ec 52be 5f30 5fbe 7f76 ea3d
00000230: c701 c8bd 8198 89be a1cb 7c3d 52a7 ccbd
00000240: 46d9 83be 9b37 a93d 6461 433e acf5 fdbc
00000250: c10f a4be e888 2fbe f521 f7bd a5a8 bfbd
00000260: e1c0 bebd 5e0b 1c3e a77b 873d d989 1fbe
00000270: 36d5 b0be f92a e1bc 3f09 833e 12da cb3e
00000280: 7a4a bbbe 2fc7 c9be a9d4 89bb b51d 523e
00000290: 8a87 f3bd 108e 7f3e cf9a 0c3d 9475 99be
000002a0: b486 bf3d 82ec 52be 5f30 5fbe 7f76 ea3d
000002b0: c701 c8bd 8198 89be a1cb 7c3d 52a7 ccbd
000002c0: 46d9 83be 9b37 a93d 6461 433e acf5 fdbc
000002d0: c10f a4be e888 2fbe f521 f7bd a5a8 bfbd
000002e0: e1c0 bebd 5e0b 1c3e a77b 873d d989 1fbe
000002f0: 36d5 b0be f92a e1bc 3f09 833e 12da cb3e
00000300: 7a4a bbbe 2fc7 c9be 8fd4 89bb b51d 523e
00000310: 8a87 f3bd 108e 7f3e cf9a 0c3d 9475 99be
00000320: b486 bf3d 82ec 52be 5f30 5fbe 7f76 ea3d
00000330: c701 c8bd 8198 89be a1cb 7c3d 52a7 ccbd
00000340: 46d9 83be 9b37 a93d 6461 433e acf5 fdbc
00000350: c10f a4be e888 2fbe f521 f7bd a5a8 bfbd
00000360: e1c0 bebd 5e0b 1c3e a77b 873d d989 1fbe
00000370: 36d5 b0be f92a e1bc 3f09 833e 12da cb3e
00000380: 7a4a bbbe 2fc7 c9be 87d4 89bb b51d 523e
00000390: 8a87 f3bd 108e 7f3e cf9a 0c3d 9475 99be
000003a0: b486 bf3d 82ec 52be 5f30 5fbe 7f76 ea3d
000003b0: c701 c8bd 8198 89be a1cb 7c3d 52a7 ccbd
000003c0: 46d9 83be 9b37 a93d 6461 433e acf5 fdbc
000003d0: c10f a4be e888 2fbe f521 f7bd a5a8 bfbd
000003e0: e1c0 bebd 5e0b 1c3e a77b 873d d989 1fbe
000003f0: 36d5 b0be f92a e1bc 3f09 833e 12da cb3e
-0.3658026 -0.39409778 -0.0042063226 0.20519145 -0.118910864 0.24956536 0.034327324 -0.29972517
0.093518645 -0.20598033 -0.21795796 0.114483826 -0.09765964 -0.26874164 0.061717633 -0.09992851
-0.25751704 0.08262559 0.1908012 -0.031000935 -0.3204327 -0.1714207 -0.12067024 -0.09358338
-0.093141325 0.15238711 0.06615382 -0.15579928 -0.34537667 -0.027486311 0.25592992 0.39814812
-0.3658026 -0.39409778 -0.004206306 0.20519145 -0.118910864 0.24956536 0.034327324 -0.29972517
0.093518645 -0.20598033 -0.21795796 0.114483826 -0.09765964 -0.26874164 0.061717633 -0.09992851
-0.25751704 0.08262559 0.1908012 -0.031000935 -0.3204327 -0.1714207 -0.12067024 -0.09358338
-0.093141325 0.15238711 0.06615382 -0.15579928 -0.34537667 -0.027486311 0.25592992 0.39814812
-0.3658026 -0.39409778 -0.0042062975 0.20519145 -0.118910864 0.24956536 0.034327324 -0.29972517
0.093518645 -0.20598033 -0.21795796 0.114483826 -0.09765964 -0.26874164 0.061717633 -0.09992851
-0.25751704 0.08262559 0.1908012 -0.031000935 -0.3204327 -0.1714207 -0.12067024 -0.09358338
-0.093141325 0.15238711 0.06615382 -0.15579928 -0.34537667 -0.027486311 0.25592992 0.39814812
-0.3658026 -0.39409778 -0.004206282 0.20519145 -0.118910864 0.24956536 0.034327324 -0.29972517
0.093518645 -0.20598033 -0.21795796 0.114483826 -0.09765964 -0.26874164 0.061717633 -0.09992851
-0.25751704 0.08262559 0.1908012 -0.031000935 -0.3204327 -0.1714207 -0.12067024 -0.09358338
-0.093141325 0.15238711 0.06615382 -0.15579928 -0.34537667 -0.027486311 0.25592992 0.39814812
-0.3658026 -0.39409778 -0.004206273 0.20519145 -0.118910864 0.24956536 0.034327324 -0.29972517
0.093518645 -0.20598033 -0.21795796 0.114483826 -0.09765964 -0.26874164 0.061717633 -0.09992851
-0.25751704 0.08262559 0.1908012 -0.031000935 -0.3204327 -0.1714207 -0.12067024 -0.09358338
-0.093141325 0.15238711 0.06615382 -0.15579928 -0.34537667 -0.027486311 0.25592992 0.39814812
-0.3658026 -0.39409778 -0.0042062593 0.20519145 -0.118910864 0.24956536 0.034327324 -0.29972517
0.093518645 -0.20598033 -0.21795796 0.114483826 -0.09765964 -0.26874164 0.061717633 -0.09992851
-0.25751704 0.08262559 0.1908012 -0.031000935 -0.3204327 -0.1714207 -0.12067024 -0.09358338
-0.093141325 0.15238711 0.06615382 -0.15579928 -0.34537667 -0.027486311 0.25592992 0.39814812
-0.3658026 -0.39409778 -0.004206247 0.20519145 -0.118910864 0.24956536 0.034327324 -0.29972517
0.093518645 -0.20598033 -0.21795796 0.114483826 -0.09765964 -0.26874164 0.061717633 -0.09992851
-0.25751704 0.08262559 0.1908012 -0.031000935 -0.3204327 -0.1714207 -0.12067024 -0.09358338
-0.093141325 0.15238711 0.06615382 -0.15579928 -0.34537667 -0.027486311 0.25592992 0.39814812
-0.3658026 -0.39409778 -0.0042062434 0.20519145 -0.118910864 0.24956536 0.034327324 -0.29972517
0.093518645 -0.20598033 -0.21795796 0.114483826 -0.09765964 -0.26874164 0.061717633 -0.09992851
-0.25751704 0.08262559 0.1908012 -0.031000935 -0.3204327 -0.1714207 -0.12067024 -0.09358338
-0.093141325 0.15238711 0.06615382 -0.15579928 -0.34537667 -0.027486311 0.25592992 0.39814812

model_features_DecBlock1_denselayer1_conv1_weight_mean f4 [4, 32, 3]
00000000: f6c3 be3d 8f5b 11be e022 b1bd 6ce6 ac3e
00000010: 46a2 5c3e ae48 8ebe 3401 793d 3c69 04be
00000020: 8c77 cbbd 86af a1be 8d60 68bd e0aa 1a3e
00000030: 9f19 cd3e cf2b 70be 1955 933d f50a 47bd
00000040: c52f 173e 8539 e93c 31b4 303e d150 4abc
00000050: b75d 5f3e 4ecf 24be 8d37 b8be e814 89be
00000060: c0b5 d9bb 9af2 363e bd55 65bd c905 043d
00000070: 5805 533c 4c89 c33d a1a4 013c 4b07 85bd
00000080: 3da4 d13d be65 ed3d 85a6 4b3e 7204 32be
00000090: c134 cabd cf26 753d 4612 74bd 3e25 1b3e
000000a0: c55d 28bf 97e3 a7be 0095 85bd e0cf fabc
000000b0: 1f00 a73d 71d8 af3c e439 2abd f2b8 5fbe
000000c0: f7c9 f53b 5e34 1f3d 1ec5 e8bc 81f2 073e
000000d0: d8bc 393e 2916 973c f5a6 d2bb 21c5 0fbf
000000e0: 96cf 11bd 93c7 d6be cc74 793c 0e52 dfb7
000000f0: daa8 153e e600 c83d 9237 65bd 9a0f 2b3c
00000100: 1651 ab3d 7d3b bcbd 12a9 a5bd 6528 313c
00000110: 05d2 d23c f8f8 8a3d 4da5 06be 05c3 5abe
00000120: 9ba1 023e 3722 36bf 1236 05bf 4bb6 82be
00000130: 6292 bbbe 705f 75bc 7263 a8bd a40b ed3d
00000140: 2e02 6ebe 93d1 be3d 4da9 bfbd f1d1 b8bd
00000150: 3cea 003e 6b4a 923d bb6b f23c d292 fdbe
00000160: 6088 00bd 0bd0 4dbe 799a f63d cb30 a2bd
00000170: 728c 2ebe b715 293e c432 42be 0caa 65be
00000180: c4b4 67be 7e03 513e 9ad1 e13c 4959 9dbd
00000190: 32d2 5f3f 017c 35bf bc2f 96bd f3ac 313d
000001a0: 1a25 843d 214a 4e3e 49c4 273e 3a9c 03be
000001b0: 2bc2 44be 5404 2b3e 6498 a7bc 32ad 983c
000001c0: 68f4 1f3e 997c 1bbf 00f7 97bd 6180 c93d
000001d0: 9653 89bc 3e36 89bd c269 0e3e 297c 1dbd
000001e0: 0dcd 193e 0535 b8bc d8c9 d63d 738e 9bbd
000001f0: 93e2 023d cfac d93c 538a 543e 3c00 213b
00000200: 7dc4 eebd 622f c03d e407 723e 7e1b 0fbe
00000210: 1df1 db3e f1e6 1dbe c2ed 203e b07a 093f
00000220: 305a 113d 840f 633a f62b 7f3d 493e 793d
00000230: a9b3 ec3d 40fd 8a3e 721d dc3d ded2 23bd
00000240: 7d36 3c3d 016c 893a 1b9d 3dbe f947 373e
00000250: 7d99 323d 0533 f53d 5e22 bebd c42b 533e
00000260: 6eff d5bd f2a3 d43c 2d62 633d 29ed ee3b
00000270: 4ab8 113f dd7c 19be ae82 443c 89df 8ebe
00000280: 931b f1bd e13b c13d 615a 513d b0eb aa3d
00000290: 06fc a7be c473 663d 2762 95be fc16 2a3e
000002a0: 31d8 053d 5d17 003e db52 043e b781 0c3e
000002b0: d476 093d 55df 0e3d dcc6 c03c 5d2b 483d
000002c0: 155b 01be 28d3 f9bd 52ea 803d 7191 f2bd
000002d0: 0d5c 1b3d f02c bebd e67f 883e ca9e 72bc
000002e0: d4ac d33c 751b 94bc 9536 0dbe c079 7fbe
000002f0: baca 5d3e 37a1 7dbe a493 473e d867 9fbd
00000300: fa0b 263a 2469 e03e 5bc8 3f3d 3c3c 753d
00000310: 4d1e 233f a9ae 85be b39b 563d bc44 b1be
00000320: 7efe dbbd a79d 9b3e efd4 523e 028f 9ebd
00000330: c055 7b3e dcac d9bc e566 da3d 4943 a03d
00000340: d48b 4abd c167 febd c6d3 4e3e e5fc 92bc
00000350: 26ad 0bbe 9752 a03d 6613 22be e9cc fbbe
00000360: 958d a53a f3e8 2dbe fd24 e63c e859 563d
00000370: 7605 d8bd f8d8 283d 5431 b5bb 5bf8 ff3c
00000380: 780e cc3b d837 f3be 6bde 0bbe 49aa a3bd
00000390: 56c9 1e3e 8149 c1bc ba97 e0bd c0a7 263d
000003a0: 0269 bfbe 1975 1abf 1694 81bd afc1 88be
000003b0: d87a 44bc d875 393d efcb 213e 897e 09be
000003c0: 63e4 d1bd 15f2 28be ed93 3cbe 5d74 a13d
000003d0: 0984 813e 9da9 93bd c094 803d 6f3a 86bd
000003e0: 9d91 5839 3ee3 77bd 9ed1 48be fbe7 8cbd
000003f0: 433c 4abd f16b 6d3d 7397 0d3e 6a86 0b3e
0.0931472 -0.14195083 -0.0864923 0.33769548 0.21546277 -0.27789825 0.060792163 -0.12930769
-0.09934911 -0.31579226 -0.056732703 0.15104246 0.4005861 -0.23454212 0.071939655 -0.048594434
0.14764316 0.02846981 0.17256238 -0.01234837 0.21813093 -0.16094705 -0.35979882 -0.26773763
-0.0066439807 0.17865983 -0.05598997 0.03223208 0.012879692 0.09547672 0.007912786 -0.06495532
0.10236404 0.115916714 0.19887741 -0.17384508 -0.09873343 0.059851464 -0.05958774 0.15150926
-0.6576808 -0.32790825 -0.0652256 -0.0306167 0.0815432 0.021465512 -0.041559115 -0.21847895
0.0075008827 0.0388683 -0.028414305 0.13276102 0.18138444 0.018443184 -0.0064285942 -0.5616017
-0.03559836 -0.41949138 0.0152256 -2.6621881e-05 0.14615193 0.09765796 -0.0559612 0.010440731
0.08365075 -0.09191034 -0.08088888 0.010812853 0.02573491 0.06785768 -0.13148995 -0.21363457
0.1275696 -0.7114596 -0.5203563 -0.25529703 -0.3663512 -0.014976367 -0.08222093 0.11574486
-0.23243019 0.09317317 -0.093584634 -0.09024418 0.12589353 0.071431 0.029592386 -0.49526078
-0.031380057 -0.20098893 0.12041182 -0.07919463 -0.17045763 0.1651219 -0.18964678 -0.22428149
-0.2262755 0.20411488 0.027565766 -0.076830454 0.8743011 -0.7089234 -0.07333323 0.043377828
0.06452389 0.20145465 0.1638347 -0.12852564 -0.19214694 0.1670087 -0.020458408 0.018637273
0.15620577 -0.60736996 -0.074201584 0.098389395 -0.01676349 -0.06699799 0.13907531 -0.038448486
0.15019627 -0.02248622 0.104877174 -0.075955294 0.03195436 0.02657166 0.20755892 0.002456679
-0.11658571 0.093840376 0.23635823 -0.13975331 0.42957392 -0.15420128 0.15715697 0.5370283
0.0354864 0.0008661675 0.062297784 0.060850415 0.11557705 0.2714634 0.10747804 -0.03999602
0.0459504 0.0010484458 -0.18516962 0.17898549 0.04360341 0.11972622 -0.09283899 0.20622164
-0.1044911 0.025957081 0.05551355 0.0072914553 0.5692183 -0.14989038 0.011994047 -0.2790492
-0.117728375 0.09435249 0.051111583 0.08345735 -0.32809466 0.056262746 -0.29176447 0.1661033
0.03267688 0.12508912 0.12922232 0.13721357 0.03356059 0.034880955 0.023532324 0.04886948
-0.12632401 -0.12198478 0.06294693 -0.11844147 0.037929583 -0.09285915 0.2666008 -0.014808366
0.025839247 -0.018079499 -0.13790353 -0.24948788 0.21659365 -0.2476853 0.19489914 -0.077834785
0.0006334182 0.43830216 0.046821933 0.059871897 0.6371811 -0.26109818 0.05239458 -0.34622753
-0.107419 0.30393717 0.2058904 -0.0774212 0.2454443 -0.026571684 0.10664157 0.078253336
-0.049449757 -0.12422133 0.20197973 -0.017942855 -0.1364027 0.07828253 -0.15827712 -0.49179772
0.0012630696 -0.16983394 0.02809381 0.052331835 -0.105479166 0.041222543 -0.005529562 0.031246355
0.0062273107 -0.47503543 -0.13659064 -0.07991464 0.15506491 -0.02359462 -0.109664395 0.040687323
-0.37384802 -0.60334927 -0.06327073 -0.2671027 -0.011992179 0.0452784 0.1580045 -0.13427176
-0.102486394 -0.16498597 -0.18415804 0.07883523 0.25296047 -0.072100855 0.06278372 -0.06554114
0.0002065361 -0.06051945 -0.19611213 -0.06880184 -0.049373876 0.05796427 0.13827305 0.13625494

model_features_DecBlock1_denselayer1_conv1_weight_sq_mean f4 [4, 32, 3]
00000000: 7e27 0e3c b411 a53c 6c22 f53b d88c e93d
00000010: 4427 3e3d 6829 9e3d 5433 723b 60f9 883c
00000020: d8b6 213c 703c cc3d 2cef 523b 05e4 ba3c
00000030: 0752 243e 2f52 613d a995 a93b 06c2 1a3b
00000040: cc92 b23c ba79 543a 7af0 f33c a4e3 1f39
00000050: 61e4 423d 9534 d43c e38f 043e bece 923d
00000060: 9d25 3938 dcbd 023d 7672 4d3b f52b 883a
00000070: c9f1 2d39 6f5a 153c b04e 8338 2741 8a3b
00000080: 8ead 2b3c 8b25 5c3c 8001 223d 5494 f73c
00000090: 56b7 1f3c 4bc3 6a3b e1b2 683b 370c bc3c
000000a0: 6776 dd3e 6435 dc3d 4b68 8b3b a4ba 753a
000000b0: 48e2 d93b 3a93 f139 df61 e23a ba83 433d
000000c0: 28fc 6b38 3404 c63a e6a5 533a 4763 903c
000000d0: 74c2 063d 4c56 b239 5556 2d38 a77b a13e
000000e0: a119 a63a 3b32 343e 6914 7339 02eb 4230
000000f0: f6fb ae3c 6441 1c3c 713c 4d3b 9d9b e438
00000100: d44a e53b 6867 0a3c b766 d63b b231 f538
00000110: 419d 2d3a b6e2 963b e5a2 8d3c b1f0 3a3d
00000120: 0951 853c a594 013f 75a2 8a3e 417b 853d
00000130: 296f 093e c42f 6b39 5585 dd3b 857e 5b3c
00000140: 0b48 5d3d bf3b 0e3c 0f7e 0f3c 746e 053c
00000150: 21d6 813c e931 a73b d38f 653a 792b 7b3e
00000160: 4d11 813a d976 253d 458d 6d3c 9583 cd3b
00000170: 6606 ee3c 585b df3c f850 133d b609 4e3d
00000180: b8b7 513d b3a6 2a3d 1632 473a 406d c13b
00000190: ccaf 433f 91a8 003f e637 b03b 2fa1 f63a
000001a0: 876c 883b 5d3b 263d 53e3 db3c 8752 873c
000001b0: dd39 173d 937d e43c 5970 db39 3a1c b639
000001c0: 06e3 c73c 42e0 bc3e 9a6a b43b d49a 1e3c
000001d0: 2255 9339 3616 933b 0773 9e3c 02c3 c13a
000001e0: 72cd b83c 3f8c 043a 1236 343c 920b bd3b
000001f0: cbd5 853a 6116 393a 6575 303d 8f82 ca36
00000200: f2b1 5e3c 1c47 103c dcd2 643d 69ff 9f3c
00000210: 60f6 3c3e 30ca c23c 2d54 ca3c 11a9 933e
00000220: 910e a53a 8364 4935 9958 7e3b 3aaa 723b
00000230: b1db 5a3c 09ec 963d a342 3d3c 5eac d13a
00000240: 1560 0a3b 7c89 9335 5671 0c3d f537 033d
00000250: a433 f93a b4da 6a3c 0537 0d3c 2e31 2e3d
00000260: 05e3 323c f59f 303a 3cf7 493b c4fd 5e38
00000270: 86e4 a53e f20c b83c 55d8 1639 8079 9f3d
00000280: f214 633c 59db 113c b334 2b3b b13b e43b
00000290: 7d75 dc3d 3974 4f3b c156 ae3d 0505 e23c
000002a0: b6f4 8b3a b02e 803c 14cb 883c 393c 9a3c
000002b0: cba0 933a 0279 9f3a e12a 113a ce83 1c3b
000002c0: d5b9 823c 60cc 733c 47d6 813b 52d7 653c
000002d0: 2c91 bc3a bc46 0d3c 3e90 913d 94f0 6539
000002e0: 5906 2f3a 865f ab39 4dca 9b3c bdf3 7e3d
000002f0: 9627 403d 0848 7b3d de96 1b3d 5384 c63b
00000300: 5a67 d734 19b8 443e 95ac 0f3b 53ec 6a3b
00000310: 32df cf3e e79d 8b3d b4e8 333b 3b80 f53d
00000320: 600d 3d3c 7e30 bd3d fda1 2d3d 9f69 c43b
00000330: 3cc1 763d 7616 393a 6753 3a3c 52a8 c83b
00000340: f840 203b 03d2 7c3c 7e19 273d d5ca a839
00000350: 066b 983c 9fce c83b 2139 cd3c 68ab 773e
00000360: b51f d635 5049 ec3c 7ae6 4e3a 707a 333b
00000370: 3c49 363c f3ba de3a cd3e 0038 b9f0 7f3a
00000380: 0da7 2238 1313 673e 89d6 983c 9a44 d13b
00000390: 39fa c43c e7ef 113a d309 453c ebfb d83a
000003a0: cf1d 0f3e 2f62 ba3e 282d 833b b41c 923d
000003b0: 58cc 1639 855b 063b 4984 cc3c 49b1 933c
000003c0: b016 2c3c 41fd de3c 99e9 0a3d 1aa7 cb3b
000003d0: a60c 833d 7558 aa3b 302a 813b 72c2 8c3b
000003e0: a03c 3733 4208 703b 2c88 1d3d 1a1d 9b3b
000003f0: 29c3 1f3b 0031 5c3b 5fa0 9c3c 7c16 983c
0.008676408 0.020150043 0.00748091 0.11403817 0.046424165 0.07722741 0.0036956863 0.016720474
0.0098702535 0.09972465 0.0032186015 0.022813806 0.16046916 0.055010017 0.0051753116 0.0023614182
0.021798514 0.0008105297 0.029777754 0.00015248224 0.04758108 0.02590398 0.12945513 0.07168339
4.4142467e-05 0.031919345 0.0031348742 0.0010389077 0.00016588638 0.009115799 6.2612235e-05 0.0042191925
0.01047839 0.013436685 0.03955221 0.030222096 0.009748301 0.003582197 0.003550701 0.022955043
0.43254396 0.10752371 0.004254376 0.000937382 0.0066492893 0.00046076794 0.00172716 0.047733046
5.6263205e-05 0.0015107454 0.0008073732 0.017625464 0.03290029 0.00034015102 4.1326817e-05 0.31539652
0.0012672433 0.17597286 0.00023181889 7.0910755e-10 0.021360379 0.009537075 0.0031316543 0.000109008724
0.0069974456 0.0084475055 0.0065430063 0.00011691767 0.0006622859 0.004604663 0.017289588 0.045639697
0.016273992 0.5061744 0.2707707 0.065176494 0.1342131 0.0002242914 0.006760279 0.013396864
0.054023784 0.008681237 0.008758082 0.00814401 0.015849175 0.0051023853 0.0008757088 0.24528302
0.0009847075 0.040396545 0.014499013 0.0062717893 0.029055785 0.027265236 0.03596589 0.05030223
0.0512006 0.041662883 0.0007598711 0.005902916 0.7644012 0.5025721 0.0053777574 0.0018816347
0.004163328 0.040583957 0.026841795 0.016518844 0.036920417 0.02789191 0.0004185464 0.00034734776
0.024400245 0.36889845 0.005505872 0.009680469 0.00028101454 0.0044887317 0.019341959 0.0014782848
0.022558901 0.00050562987 0.0109992195 0.0057692016 0.001021081 0.00070605247 0.043080706 6.035268e-06
0.01359223 0.008806016 0.055865154 0.019530969 0.1845336 0.023778051 0.024698341 0.28839925
0.0012592842 7.50246e-07 0.0038810133 0.0037027732 0.013358043 0.07369239 0.011551532 0.0015996804
0.0021114398 1.0992367e-06 0.034287773 0.032035787 0.0019012582 0.014334369 0.008619075 0.04252737
0.0109183835 0.00067377026 0.003081753 5.3165262e-05 0.32400912 0.02246711 0.00014385705 0.07786846
0.013859974 0.008902394 0.002612394 0.0069651236 0.107645966 0.0031654967 0.08512641 0.027590284
0.0010677788 0.015647262 0.016698398 0.018827545 0.001126313 0.00121668 0.00055377005 0.0023882273
0.015957752 0.01488027 0.0039623114 0.014028387 0.0014386526 0.008622821 0.0710759 0.00021928764
0.0006676666 0.00032686832 0.019017363 0.062244166 0.046912752 0.06134799 0.037985675 0.0060582547
4.012207e-07 0.19210853 0.0021922935 0.0035846427 0.40599972 0.06817227 0.0027451934 0.11987349
0.011538833 0.09237765 0.042390812 0.0059940363 0.060242876 0.0007060537 0.011372424 0.006123581
0.0024452787 0.01543093 0.040795796 0.0003219458 0.01860572 0.006128147 0.025051655 0.2418648
1.595347e-06 0.028843552 0.000789262 0.002738621 0.011125859 0.0016992971 3.0576066e-05 0.00097633485
3.8779388e-05 0.2256587 0.018656986 0.006386352 0.024045097 0.0005567059 0.012026268 0.001655457
0.13976215 0.36403033 0.004003186 0.07134381 0.00014381239 0.0020501327 0.024965422 0.018028872
0.010503456 0.02722037 0.033914182 0.0062149884 0.06398897 0.005198533 0.0039417967 0.0042956406
4.2663146e-08 0.0036626016 0.03845994 0.004733694 0.00243778 0.0033598542 0.01911944 0.018565409
